cifar_classification/cifar_net.pth (torch, 251465 bytes, 10 tensors)

conv1.weight f4 [6, 3, 5, 5]
0	0x3d7ee0f4	0.06222625
1	0xbcb30e5d	-0.021857435
2	0x3c9a317a	0.01882242
3	0x3e30dcea	0.17271772
4	0x3d87704f	0.06613218
5	0x3dce18c9	0.10063321
6	0xbc7b176a	-0.015325407
7	0xbcf46e26	-0.02983768
8	0x3d3bda0e	0.04586225
9	0x3e98cfd9	0.29846075
10	0xbd22120f	-0.039568003
11	0x3e771e56	0.24132666
12	0x3e53d2c7	0.20685874
13	0xbc266d72	-0.01015793
14	0xbe260912	-0.16214398
15	0x3e01cdbe	0.1267614
16	0x3e69eb66	0.22843704
17	0x3e3facd1	0.18718268
18	0xbe442c99	-0.19157638
19	0xbe867f9e	-0.2626924
20	0x3b395236	0.0028277761
21	0x3d32209f	0.04348814
22	0xbcf6fe6c	-0.030150615
23	0xbe585ef3	-0.2112997
24	0xbe0e4df2	-0.13896921
25	0xbe0b743d	-0.1361856
26	0xbea77d8a	-0.32712966
27	0xbe6a68a6	-0.22891483
28	0xbc06a957	-0.008219085
29	0x3c26a0b0	0.010170147
30	0x3d4d037d	0.050052155
31	0x3d8e539e	0.069495425
32	0xbe55bb0e	-0.20872137
33	0xbd9b9449	-0.075966425
34	0x3d2ea88a	0.0426412
35	0x3c9c44d1	0.019075783
36	0x3d47a635	0.04874249
37	0xbdb01c00	-0.085990906
38	0xbe83e3f7	-0.2575986
39	0xbe6f7822	-0.23385671
40	0x3cf89a4c	0.030347012
41	0x3e7f9e28	0.24962676
42	0x3e09f15f	0.13470982
43	0xbe49b244	-0.19696909
44	0xbe9af962	-0.3026839
45	0x3db5b287	0.08871942
46	0x3e0f74c4	0.14009386
47	0x3d481354	0.048846558
48	0xbd2d1552	-0.04225666
49	0xbc3a6b66	-0.011378145
50	0x3c6bab0b	0.014384042
51	0xbe0a7c43	-0.13523965
52	0xbdde679e	-0.10859607
53	0x3e649c35	0.22325213
54	0x3de8bdfd	0.113643624
55	0xb92b91ed	-0.00016362192
56	0x3dac90df	0.084260695
57	0xbdc7a348	-0.0974794
58	0xbe05744f	-0.1303265
59	0x3b5e3c6c	0.0033910526
60	0x3dcdcfbb	0.10049387
61	0x3e83b951	0.25727323
62	0x3e25647c	0.16151613
63	0xbe64de24	-0.22350365
64	0xbe8a002e	-0.26953262
65	0x3e5eb55a	0.21748868
66	0x3ec89983	0.3917962
67	0x3e71fc2f	0.23631357
68	0xbeacca78	-0.3374822
69	0xbe9cffc4	-0.30663884
70	0x3db4475a	0.08802672
71	0x3e88184c	0.26581037
72	0xbbe54d56	-0.0069977446
73	0xbe1a7895	-0.15085061
74	0xbe53d54d	-0.20686837
75	0x3cce6e70	0.025199145
76	0x3dc289bf	0.09498929
77	0x3d94f257	0.07272785
78	0x3e87fa55	0.26558176
79	0x3e8de984	0.2771722
80	0xbd813fcc	-0.063109964
81	0xbdb4adf9	-0.08822245
82	0xbe192de4	-0.14958912
83	0x3d1c8891	0.038216177
84	0x3d4bf8b8	0.049797744
85	0xbd84cf57	-0.064848594
86	0xbe471320	-0.1944089
87	0xbe838371	-0.2568622
88	0xbe82894f	-0.25495383
89	0xbe10f5dd	-0.1415629
90	0xbd88f28d	-0.06686888
91	0xbe009876	-0.12558159
92	0xbe42b61b	-0.1901478
93	0xbdfcfe20	-0.12353158
94	0xbe037a3e	-0.128396
95	0xbdb569a7	-0.08858042
96	0xbde8b9b1	-0.11363543
97	0xbe40005c	-0.18750137
98	0xbdbc66f1	-0.09199322
99	0xbc417cf0	-0.011809573
100	0xbc62f737	-0.013852886
101	0xbdf78dd8	-0.120876014
102	0xbbadcff2	-0.00530433
103	0xbdc3fcab	-0.09569677
104	0xbddda713	-0.108228825
105	0xbdcc067c	-0.09962174
106	0x3cc0ac18	0.02351956
107	0x3d8ee66d	0.06977544
108	0x3dac6eca	0.08419569
109	0xbe223bb4	-0.15843087
110	0x3de5ce02	0.112209335
111	0xbc3e5067	-0.011615849
112	0x3b8ca5e7	0.004292238
113	0x3d8418f6	0.064500734
114	0x3d5bcbf6	0.05366131
115	0xbce5795b	-0.028011968
116	0x3e1821b0	0.14856601
117	0x3e12fcb2	0.14354208
118	0x3e25572c	0.16146535
119	0x3df7155f	0.12064623
120	0xbe18b5b9	-0.14913072
121	0xbc1f958e	-0.009740246
122	0xbde8822e	-0.11352955
123	0x3cf5344e	0.029932167
124	0xbe242fe5	-0.16033895
125	0xbdaf7319	-0.08566875
126	0xbd9c03a5	-0.07617883
127	0x3d8db764	0.069197446
128	0x3c68983b	0.014196451
129	0x3d5534ab	0.05205218
130	0xbcd1833d	-0.025575275
131	0x3dce8c15	0.10085312
132	0x3e3fc64c	0.18727988
133	0x3d943017	0.07235735
134	0x3c01c342	0.007920088
135	0x3e002988	0.12515843
136	0x3e9112be	0.28334612
137	0x3e97a10c	0.29615057
138	0x3e1d73f3	0.15376262
139	0x3e32af9c	0.17449802
140	0x3e83f9c3	0.2577649
141	0x3e6605cb	0.22463147
142	0x3e940e7e	0.28917307
143	0x3e95e87d	0.29278937
144	0x3dcb6afe	0.099325165
145	0xbcc04c0b	-0.02347376
146	0x3dda059f	0.106456034
147	0x3e102166	0.1407524
148	0xbd8e9169	-0.069613285
149	0xbe5651f9	-0.20929708
150	0xbe1eca5a	-0.15506878
151	0xbd807c31	-0.06273688
152	0xbcf27654	-0.029597439
153	0x3d9976eb	0.07493385
154	0xbd1cacea	-0.03825084
155	0xbd23a66b	-0.03995363
156	0xbf15e245	-0.58548385
157	0xbf2f1abd	-0.68400174
158	0xbebeceb4	-0.37267077
159	0xbcaf756d	-0.021418298
160	0x3e015e42	0.12633613
161	0x3e3a67ee	0.18203709
162	0x3c083b6c	0.0083149485
163	0xbd6ddcbf	-0.058071848
164	0x3dba012e	0.09082256
165	0xbd3b3167	-0.04570141
166	0x3ed8762e	0.42277664
167	0x3ee91f21	0.45531562
168	0x3e6783b3	0.22608833
169	0x3e5bf706	0.2148095
170	0x3d20ab66	0.03922596
171	0xbd1328e0	-0.035927653
172	0x3e0ae5d3	0.13564233
173	0x3de36da3	0.11104896
174	0x3e27dbaf	0.16392396
175	0x3de8ad7a	0.11361213
176	0x3de11b5a	0.10991545
177	0x3d9e0f27	0.07717734
178	0x3e880a79	0.2657049
179	0xbdc0755b	-0.09397384
180	0xbd2e8c1e	-0.042614095
181	0xbee9e744	-0.45684254
182	0xbf0684b6	-0.5254625
183	0xbe2913ab	-0.16511409
184	0x3deccd2e	0.115625724
185	0x3c9d6974	0.019215323
186	0x3e84a071	0.25903657
187	0x3e24a473	0.16078357
188	0x3de707ca	0.112807825
189	0x3dc46cc0	0.09591055
190	0xbc6a828d	-0.014313352
191	0x3eb3fba1	0.35152915
192	0x3ea5e63e	0.32402223
193	0x3e37a938	0.17935646
194	0xbe21196a	-0.15732351
195	0xbe432c34	-0.19059831
196	0xbd8b96cd	-0.06815872
197	0xbe41c652	-0.1892331
198	0xbe41123a	-0.18854609
199	0xbe4fc395	-0.20289452
200	0x3e1ae554	0.15126544
201	0x3e0589e1	0.13040878
202	0x3e342e97	0.17595898
203	0x3e20f3c5	0.1571799
204	0x3d5d4df5	0.054029424
205	0x3cc323dd	0.023820812
206	0xbea108f8	-0.31452155
207	0xbec78848	-0.38971162
208	0xbe8d748c	-0.2762798
209	0xbd5ebdc0	-0.05438018
210	0x3e05f3c8	0.13081276
211	0x3d6b7fb5	0.057494838
212	0x3e4008b3	0.18753318
213	0xbd1e8d27	-0.038708832
214	0xbd27be73	-0.04095311
215	0xbcf7761c	-0.030207686
216	0x3e312906	0.17300805
217	0x3ea41f33	0.32055053
218	0x3deeea0a	0.11665733
219	0xbcaceade	-0.021108087
220	0xbe56da46	-0.20981702
221	0xbe387f8d	-0.18017407
222	0xbda4c666	-0.08045654
223	0xbd98f028	-0.07467681
224	0xbc014c4a	-0.007891724
225	0xbdb975d4	-0.09055677
226	0x3d8ce819	0.068802066
227	0x3df6b895	0.12046925
228	0x3aa7d15e	0.0012803485
229	0xbd025985	-0.031823654
230	0xbda4bca6	-0.08043794
231	0xbdcf0d13	-0.101099156
232	0x3df9fa86	0.12205987
233	0x3e4785f9	0.194847
234	0x3d10cf40	0.0353539
235	0x3d77e653	0.06052239
236	0xbdcee1c1	-0.10101653
237	0xbdc08e9c	-0.094022006
238	0x3e6eb86f	0.23312543
239	0x3e100fa8	0.14068472
240	0x3e8186f9	0.25298288
241	0xbdf4101d	-0.11917136
242	0xbe369e51	-0.1783383
243	0x3e1b234f	0.15150188
244	0x3e8fdee7	0.28099748
245	0x3df8ed58	0.12154645
246	0xbd5580c7	-0.052124765
247	0xbdbc38ec	-0.091905445
248	0xbd85d57d	-0.0653486
249	0x3e51871d	0.20461698
250	0xbe40a567	-0.18813096
251	0xbe280120	-0.16406679
252	0xbdfc1749	-0.12309129
253	0xbd1e9744	-0.038718477
254	0x3ceba0cd	0.0287632
255	0x3de6593d	0.112474896

conv1.bias f4 [6]
0	0xbe99909a	-0.29993135
1	0x3df866ba	0.121289685
2	0xbe687bd8	-0.22703493
3	0xbe8d11a6	-0.27552527
4	0xbdba4137	-0.0909447
5	0xbe4b937e	-0.19880483

conv2.weight f4 [16, 6, 5, 5]
0	0xbcb407b8	-0.021976337
1	0xbdb873c4	-0.090064555
2	0x3d3d07f5	0.046150167
3	0x3d63cdca	0.055616178
4	0xbd8169d5	-0.06319014
5	0x3d4a4cc3	0.049389612
6	0xbdd67549	-0.10471589
7	0x3d265877	0.04061171
8	0xbdbb875c	-0.09156677
9	0x3b8cb9ae	0.0042945957
10	0x3cec7134	0.028862573
11	0xbdcc00a7	-0.09961062
12	0xbd553eb1	-0.05206174
13	0xbd8d962f	-0.06913411
14	0xbdd82902	-0.105546966
15	0x3bf56fc6	0.007490131
16	0xbdb870e3	-0.090059064
17	0xbd0c546a	-0.03426019
18	0xbbc80264	-0.0061038006
19	0xbdc1b335	-0.09458009
20	0x3abc52d0	0.0014367942
21	0xbc48e95d	-0.012262669
22	0xbd1a712e	-0.037705593
23	0xbd64ae12	-0.05583007
24	0xbb2af7d3	-0.0026087656
25	0xbd0af1ad	-0.033921886
26	0xbdb68790	-0.08912575
27	0xbbee1f9f	-0.007266953
28	0xbd55545a	-0.052082397
29	0xbc9a0b0d	-0.018804098
30	0xbce4b229	-0.027916985
31	0xb9e72de7	-0.00044093953
32	0xbd40902c	-0.047012493
33	0x3cdb10a4	0.026741333
34	0xbdf8c37d	-0.121466614
35	0xb9862662	-0.0002558707
36	0xbd621470	-0.055195272
37	0xbcdfc6d3	-0.027316486
38	0xbd8ca6b2	-0.06867732
39	0xbdeb43fc	-0.11487576
40	0x3d0871f2	0.03331179
41	0xbd1ce947	-0.038308408
42	0xbdba1b4b	-0.09087237
43	0xbd208330	-0.03918761
44	0xbdaab86e	-0.083359584
45	0xbcbd5b48	-0.023114815
46	0x3c8a3b47	0.016873969
47	0xbd8f6b7c	-0.07002923
48	0xbdc9e20b	-0.098575674
49	0xbd1b3fc8	-0.037902623
50	0x3c379ecf	0.0112072965
51	0x3cc56e3e	0.02410042
52	0xbd20f6db	-0.03929792
53	0xbd0f1d62	-0.03494013
54	0xbda036ff	-0.0782299
55	0x3ac802d8	0.0015259637
56	0xbddf7578	-0.10911077
57	0xbdadaea9	-0.084805794
58	0x3bcb8a7b	0.0062115765
59	0xbd7c3ba3	-0.06158031
60	0x3c651746	0.0139826
61	0xbd83bbe7	-0.06432324
62	0xbb05c13c	-0.0020409366
63	0x3c277a21	0.010221989
64	0x3d361abf	0.0444591
65	0xbe1ca362	-0.152967
66	0xbdcfc0b8	-0.1014418
67	0xbdafec1f	-0.085899584
68	0xbd5e195b	-0.0542234
69	0xbc2a43c8	-0.010392137
70	0xbd24536d	-0.040118624
71	0xbd4e94fd	-0.050435055
72	0xbc388038	-0.0112610385
73	0x3d8061d6	0.06268661
74	0xbd79d246	-0.060991548
75	0xbc224aee	-0.00990556
76	0xbd0f0240	-0.034914255
77	0xbd5065cb	-0.050878327
78	0xbd12eca0	-0.035870194
79	0xbdcec38f	-0.100958936
80	0x3bda2feb	0.0066585443
81	0xbd972012	-0.07379164
82	0xbd1b3692	-0.03789384
83	0x3d1db239	0.038500044
84	0x3a0ec2bd	0.00054458884
85	0xbc95659a	-0.018236924
86	0xbda6d17e	-0.08145426
87	0xbdaea4a5	-0.08527497
88	0xbba979e5	-0.0051720017
89	0x3ca81cdf	0.02052158
90	0xbd3d6095	-0.046234686
91	0xbe14be26	-0.14525661
92	0xbdc54225	-0.09631757
93	0x3c926d6f	0.017874448
94	0xbcc349bd	-0.023838872
95	0x3cb4ff5c	0.022094421
96	0xbc547e2c	-0.012969535
97	0xbdc21996	-0.094775364
98	0xbc81142a	-0.015756685
99	0xbddf7347	-0.10910659
100	0xbdedb332	-0.116064444
101	0xbe0b54fb	-0.13606636
102	0xbe07a445	-0.13246258
103	0xbcfdb3e8	-0.030969575
104	0xbd919747	-0.07108932
105	0xbd5bbe8b	-0.053648513
106	0xbda2d8fd	-0.079515435
107	0xbd0d24a5	-0.034458775
108	0xbdb7807d	-0.08960054
109	0xbcac7844	-0.02105344
110	0xbd96c53c	-0.07361838
111	0xbd8077d3	-0.06272855
112	0xbe36323b	-0.17792599
113	0xbd035feb	-0.032073896
114	0xbd967831	-0.073471434
115	0xbba60c9e	-0.005067422
116	0xbded13c1	-0.115760334
117	0xbd50becd	-0.05096321
118	0xbe142444	-0.14466959
119	0xbd1e2d6a	-0.03861753
120	0x3d179313	0.037005495
121	0xbdfc656c	-0.12324032
122	0xbdfe258c	-0.12409505
123	0xbd36083a	-0.04444144
124	0xbce9842e	-0.028505411
125	0x3cc32d1f	0.023825226
126	0xbd58f0c9	-0.052964006
127	0xbdb0531d	-0.086096026
128	0xbd291324	-0.04127802
129	0xbd16bfbf	-0.036803957
130	0xbd3404f0	-0.04395002
131	0xbd00c7ab	-0.03144042
132	0xbca4c1c3	-0.020111924
133	0x3d2a97c2	0.041648634
134	0x3c9ff0e6	0.019524049
135	0xbd222f1d	-0.039595712
136	0x3cafa99f	0.021443186
137	0xbdc8d31f	-0.09805893
138	0xbdaaadbf	-0.08333921
139	0x3cff15b9	0.031138288
140	0xbde7d418	-0.113197505
141	0xbd9bd35f	-0.07608675
142	0x3c838b46	0.016057622
143	0x3c708464	0.014680002
144	0x3b2cb5eb	0.0026353549
145	0x3cda7cb1	0.026670786
146	0xbddd376a	-0.10801585
147	0xbe00d7d5	-0.12582333
148	0xbcb02a1c	-0.021504454
149	0xbc8f6847	-0.017505778
150	0xbd41fd0d	-0.04736047
151	0xbe546caf	-0.20744585
152	0xbd7ca2fb	-0.061678868
153	0x3d55c969	0.052194033
154	0x3e7d8822	0.24758962
155	0x3cec4ae5	0.028844306
156	0xbf04b8b2	-0.5184432
157	0xbf0d0e9f	-0.55100435
158	0xbde71392	-0.112830296
159	0x3e8b45d3	0.2720171
160	0x3e2a0735	0.16604312
161	0xbebf86e6	-0.37407607
162	0xbf0c4d78	-0.5480571
163	0x3c302f9d	0.010753539
164	0x3e3c375e	0.18380496
165	0xbbe85e31	-0.0070913066
166	0xbeef5e56	-0.4675166
167	0xbf21f1e1	-0.632597
168	0xbe02585c	-0.12729019
169	0x3e1764f2	0.14784601
170	0xbe72b883	-0.23703198
171	0xbf069e5d	-0.52585393
172	0xbdba6fbe	-0.091033444
173	0x3def2d95	0.11678616
174	0x3dd88ec2	0.10574104
175	0xbe924429	-0.28567627
176	0xbe109cd2	-0.14122322
177	0xbe098607	-0.13430034
178	0x3c8eb572	0.017420504
179	0xbdc2609d	-0.09491084
180	0xbe0f665c	-0.14003891
181	0xbe3c43ac	-0.1838519
182	0xbd2e355b	-0.042531352
183	0xbe008d47	-0.12553893
184	0x3db32ae8	0.08748418
185	0xbdcd1df9	-0.100154825
186	0xbe470b67	-0.19437943
187	0xbe53ef78	-0.20696819
188	0xbdc85963	-0.09782674
189	0x3dccbd26	0.09997015
190	0x3d997432	0.074928656
191	0xbe6d452a	-0.23170915
192	0xbe145a49	-0.14487566
193	0xbc1e4fca	-0.009662578
194	0x3ddf1de8	0.10894376
195	0xbce88955	-0.028385798
196	0xbe7b89bc	-0.2456426
197	0xbe36edc7	-0.17864142
198	0xbe49937d	-0.19685169
199	0x3e07a0a8	0.13244879
200	0xbe7447ec	-0.23855561
201	0xbe3e02a4	-0.18555695
202	0xbe609e1b	-0.21935312
203	0xbe4196b1	-0.1890514
204	0xbf0a69ad	-0.540675
205	0xbdc07668	-0.09397584
206	0xbd2af6c3	-0.041739237
207	0x3e0422e3	0.12903933
208	0x3e500a05	0.20316322
209	0x3da83fe7	0.082153134
210	0x3e152cf2	0.14567927
211	0x3e228c9d	0.15873952
212	0x3e29a6fc	0.16567606
213	0x3e1689cd	0.14701004
214	0xbdb3877e	-0.087660775
215	0xbe2270df	-0.1586337
216	0xbea7514b	-0.3267921
217	0xbecd32b6	-0.40077752
218	0xbeaefe75	-0.3417851
219	0xbeb0b2b0	-0.34511328
220	0x3e2c88d6	0.16849074
221	0x3eb07f96	0.3447234
222	0xbdd9e4d1	-0.106393464
223	0xbe40cbc9	-0.18827738
224	0xbebc967f	-0.3683357
225	0xbea67894	-0.3251387
226	0xbe3dcc0b	-0.18534867
227	0xbf03aaa8	-0.51432276
228	0xbc062170	-0.008186683
229	0x3d9433d6	0.072364494
230	0xbeb4a53d	-0.35282317
231	0xbecb6fdd	-0.39733782
232	0xbf4eb51e	-0.8074511
233	0xbe8e1d6d	-0.27756825
234	0x3d6518ca	0.055931844
235	0x3d5d5f36	0.05404588
236	0xbeca0353	-0.3945566
237	0xbf36084f	-0.7110643
238	0xbddfde78	-0.109311044
239	0x3d9cf149	0.07663209
240	0xbba47f0c	-0.005020028
241	0xbeda3479	-0.42618158
242	0xbf2db1d2	-0.6784946
243	0xbe25dc04	-0.1619721
244	0x3c5a8eb3	0.013339686
245	0x3e11d2b7	0.14240538
246	0xbebf6ac9	-0.37386158
247	0xbf0a45b9	-0.5401264
248	0xbddb3b0c	-0.10704622
249	0x3d22665b	0.039648395
250	0x3d7c4775	0.061591584
251	0x3d19b560	0.03752649
252	0xbb2e6b7d	-0.002661436
253	0x3e424cb3	0.18974571
254	0x3c9320bb	0.017959943
255	0xbde2e126	-0.110781

conv2.bias f4 [16]
0	0xbe30363f	-0.17208193
1	0x3f4397b4	0.76403356
2	0x3d3b9f8d	0.045806456
3	0x3e497dad	0.19676848
4	0xbe74ac44	-0.23893839
5	0xbe22c9aa	-0.15897241
6	0x3ca316cc	0.019908331
7	0x3e086a3d	0.13321777
8	0x3f6f1340	0.9338875
9	0xbde557c8	-0.111983836
10	0x3f27a3bd	0.6548422
11	0x3def9c2a	0.11699708
12	0x3f9f6e33	1.2455505
13	0xbf7b2863	-0.981085
14	0x3f593f8d	0.84862596
15	0x3f09136e	0.5354527

fc1.weight f4 [120, 400]
0	0x3d150a26	0.03638663
1	0xbb80db9b	-0.003932429
2	0x3d0df9e6	0.03466215
3	0x3d3ac2c9	0.045595918
4	0xbd1bf8ce	-0.038079076
5	0x3ab4bb60	0.0013788752
6	0xbc8a8573	-0.016909337
7	0xbc209fd4	-0.009803731
8	0x3d0c3b3f	0.03423619
9	0x3cd2054f	0.025637297
10	0xbc5d0613	-0.013490218
11	0x3d2b8925	0.041878838
12	0x3c0763dc	0.008263554
13	0x3b6fcf7c	0.0036592176
14	0x3d3f26af	0.04666775
15	0x3cda42cc	0.02664318
16	0x3ca1d62f	0.019755451
17	0xbd08657f	-0.03329992
18	0xbd37e60c	-0.044897124
19	0xbcb2f337	-0.02184449
20	0xbd4fd9b2	-0.05074472
21	0x3cab78cc	0.020931624
22	0x3ab44207	0.0013752588
23	0x3d1d909b	0.038467985
24	0xbd40a461	-0.047031764
25	0xbe1a5df7	-0.15074907
26	0xbdc8027e	-0.097661
27	0xbd69288b	-0.05692343
28	0xbde68756	-0.11256282
29	0x3e912b58	0.2835338
30	0xbea70192	-0.32618386
31	0x3b93d3ed	0.0045113475
32	0x3c85d5db	0.016337326
33	0x3ce47fb3	0.027892923
34	0x3e813ff1	0.25244096
35	0x3b80f4f1	0.0039354493
36	0x3df380e6	0.1188982
37	0x3c3592da	0.011082375
38	0xbe0c05c6	-0.13674077
39	0xbcf1b2a1	-0.029504122
40	0xbd701e92	-0.058622904
41	0x3d8aacf8	0.067712724
42	0xbd0d9e13	-0.03457458
43	0xbc3318e3	-0.010931226
44	0x3d09f8da	0.03368459
45	0xbbe504dd	-0.006989105
46	0x3d3ac7cb	0.045600694
47	0x3e31a8cb	0.17349546
48	0xbc829d47	-0.015944136
49	0x3e2a487c	0.16629213
50	0x3ea4691c	0.32111442
51	0x3edecfeb	0.43518004
52	0xbc31a12b	-0.010841648
53	0x3d7071c8	0.05870226
54	0x3d41ca6d	0.04731219
55	0x3de6d49f	0.11271023
56	0x3d3e745e	0.046497695
57	0xbdc559cb	-0.09636267
58	0xbd8e2a31	-0.06941641
59	0x3cf484d1	0.029848488
60	0x3ccd5553	0.0250651
61	0x3d25f740	0.040519
62	0xbca98844	-0.02069486
63	0xbc53af8b	-0.012920271
64	0xbdebf0fd	-0.11520574
65	0xbc73e255	-0.014885505
66	0xbd80e1d7	-0.062930755
67	0xbe3fac30	-0.18718028
68	0xbe3454c7	-0.17610465
69	0xbe38dfc9	-0.18054117
70	0xbd761c4c	-0.06008558
71	0x3e0df51d	0.13863035
72	0xbe45a9c3	-0.1930304
73	0xbd351121	-0.04420579
74	0xbc3eaadc	-0.011637416
75	0x3c1640cb	0.009170721
76	0xbdabe945	-0.08394102
77	0xbe259095	-0.16168435
78	0xbe315c2d	-0.17320319
79	0xbe9feb7b	-0.31234345
80	0xbbef0f54	-0.0072955284
81	0xbe2d9309	-0.1695062
82	0xbe8d392b	-0.27582678
83	0xbe5b41ef	-0.2141187
84	0xbe63181c	-0.22177166
85	0xbd839705	-0.06425289
86	0xbddb9817	-0.10722368
87	0xbe8b98b7	-0.2726495
88	0xbe0a123f	-0.13483523
89	0x3ba3e086	0.0050011305
90	0x3d1b375b	0.037894588
91	0x3d8638bb	0.06553789
92	0xbd84ead0	-0.064900994
93	0xbe582743	-0.21108727
94	0x3d20f14a	0.03929261
95	0x3e047593	0.12935476
96	0x3e0db946	0.13840207
97	0xbe21e4a1	-0.15809871
98	0xbd767aa8	-0.060175568
99	0xbd05e723	-0.032691132
100	0xbc9b9351	-0.018991144
101	0x3e1576b7	0.14596067
102	0xbe34239f	-0.17591713
103	0xbea88c66	-0.32919616
104	0xbd2a9b9f	-0.041652318
105	0x3e3703aa	0.17872491
106	0x3e494da5	0.19658525
107	0xbc9cf83b	-0.019161334
108	0xbc4f569a	-0.012654925
109	0x3dda4fe8	0.10659772
110	0x3d9b3658	0.075787246
111	0x3e948288	0.29005837
112	0xbd7d9e05	-0.061918277
113	0xbd664a59	-0.056223247
114	0xbcc36b3f	-0.02385485
115	0xbca16c64	-0.019705005
116	0xbd218ea3	-0.03944267
117	0xbe1886cb	-0.1489517
118	0x3becc843	0.0072260215
119	0xbe001a06	-0.12509927
120	0x3d753168	0.05986157
121	0xbe0ccc27	-0.13749753
122	0xbdeb7292	-0.11496462
123	0xbd933d88	-0.071894705
124	0xbd41390e	-0.047173552
125	0x3e881e4c	0.26585615
126	0x3e639118	0.22223318
127	0x3e50841a	0.20362893
128	0x3e010eb4	0.12603265
129	0xbd413c21	-0.047176484
130	0xbe4408e6	-0.1914402
131	0xbd2409f2	-0.040048547
132	0xbdcf7b76	-0.1013097
133	0xbce04849	-0.027378218
134	0xbc539448	-0.012913771
135	0xbe344a0b	-0.1760637
136	0x3e117366	0.14204177
137	0xbe6a2294	-0.22864753
138	0xbdbd7446	-0.09250693
139	0x3ccf7c03	0.025327688
140	0xbe36e6d1	-0.17861487
141	0xbe00047b	-0.12501709
142	0xbd957654	-0.0729796
143	0xbdb0ea8d	-0.08638487
144	0x3d0129e9	0.03153411
145	0xbdf45b2f	-0.119314544
146	0xbc33fab4	-0.010985065
147	0x3e396826	0.18106136
148	0xbd83c675	-0.06434337
149	0x3d345f7a	0.044036366
150	0xbc108a7c	-0.00882208
151	0xbd62baff	-0.055354115
152	0xbe3a4bf1	-0.18193032
153	0xbe9da56c	-0.3079027
154	0xbc4f1d28	-0.012641229
155	0x3d932021	0.071838625
156	0x3d111f74	0.035430387
157	0xbd5d8fdd	-0.054092277
158	0xbe8160e5	-0.25269237
159	0xbe888d50	-0.26670313
160	0x3a499ef5	0.0007691228
161	0x3da96e86	0.08273034
162	0x3d469e3b	0.048490744
163	0xbcfc85e1	-0.030825557
164	0x3e4d1f04	0.20031363
165	0x3d428406	0.04748919
166	0xbdd336ed	-0.10313211
167	0xbcfdd6d9	-0.030986236
168	0x3d4d80d2	0.05017168
169	0xbe1bec91	-0.15226962
170	0xbdf1331c	-0.117773265
171	0xbdef5a9d	-0.11687205
172	0x3d12a6c4	0.03580357
173	0x3e2ba804	0.16763312
174	0x3e1915c1	0.14949705
175	0x3dc8e486	0.098092124
176	0xbd9d61d6	-0.07684676
177	0xbda809a6	-0.08204965
178	0xbd50d48c	-0.05098395
179	0x3d72ae85	0.059248466
180	0x3cd85aa7	0.026410414
181	0xbd642af5	-0.05570503
182	0x3d97ba41	0.07408572
183	0xbe57ca68	-0.21073306
184	0x3cd175ad	0.025568807
185	0x3d4a4e5c	0.049391136
186	0x3d277db4	0.040891364
187	0x3e870c7a	0.26376706
188	0xbe1fb0ef	-0.15594839
189	0x3e3673c2	0.17817596
190	0xbe2fe9aa	-0.1717898
191	0x3dd8f7c8	0.105941355
192	0x3d4fe8e2	0.050759204
193	0xbd62688c	-0.055275485
194	0xbde4fcbf	-0.1118102
195	0xbd447466	-0.04796257
196	0x3da28218	0.0793497
197	0x3e1404f8	0.1445502
198	0x3c0f17a7	0.0087336665
199	0xbe5eb574	-0.21748906
200	0xbcb57742	-0.022151593
201	0xbd22cb44	-0.03974463
202	0xbd0b3bac	-0.033992454
203	0xbd944bec	-0.072410434
204	0x3d9280fc	0.07153508
205	0x3cb77352	0.022393856
206	0xbe862a1c	-0.26204002
207	0xbc337908	-0.010954149
208	0x3c0d8487	0.008637554
209	0xbd40bf23	-0.047057282
210	0xbe02ea95	-0.12784798
211	0xbd2b9dc5	-0.041898508
212	0x3c4e4da7	0.012591756
213	0xbd5587bb	-0.052131396
214	0x3d4bb8a6	0.04973664
215	0x3cae685d	0.021289999
216	0xbc57db3f	-0.013174831
217	0xbd2622a9	-0.0405604
218	0x3ad89f92	0.0016527048
219	0x3d9d459f	0.07679295
220	0x3c431031	0.011905716
221	0xbbb030eb	-0.005376925
222	0x3d02ce42	0.031934984
223	0x3dc3b666	0.09556274
224	0xbdb01b10	-0.08598912
225	0xbdba897a	-0.09108253
226	0x3dcce667	0.10004883
227	0x3dd1589f	0.10221981
228	0x3c57d525	0.013173376
229	0xbd353d74	-0.04424806
230	0xbe27a1fc	-0.16370386
231	0xbe064a02	-0.13114169
232	0xbe40634f	-0.18787883
233	0xbe044ff4	-0.12921125
234	0xbe30f984	-0.17282683
235	0xbeb8779e	-0.3602876
236	0xbe3cb0c4	-0.18426806
237	0xbe461023	-0.19342093
238	0xbe559e0d	-0.20861073
239	0xbe4c9dec	-0.19982117
240	0xbca8d0ec	-0.020607434
241	0xbdfa5491	-0.12223161
242	0xbe9e6f09	-0.30944088
243	0xbe48a978	-0.19595897
244	0xbcba8d40	-0.022772431
245	0xbe6d89e3	-0.23197131
246	0xbc0070af	-0.007839366
247	0x3d23a9a0	0.03995669
248	0x3bc2510e	0.0059300726
249	0x3db4ef35	0.088346876
250	0xbd937fa9	-0.072020836
251	0x3e177284	0.14789778
252	0x3e3a81c7	0.18213569
253	0x3d249d3b	0.04018901
254	0x3e3defbf	0.18548487
255	0xbdc04285	-0.093876876

fc1.bias f4 [120]
0	0xbbe9334d	-0.007116711
1	0xbe48b4b6	-0.19600186
2	0xbe5fe098	-0.2186302
3	0xbdc2f22f	-0.09518849
4	0xbe246af2	-0.16056421
5	0xbe89a9c2	-0.26887327
6	0xbde35d8d	-0.11101828
7	0xbd0d18c8	-0.03444746
8	0xbd4bb6cc	-0.049734876
9	0x3f2fbd0c	0.6864784
10	0x3f1bd8b5	0.60877544
11	0xbdb24bb3	-0.08705845
12	0xbd06670e	-0.032813124
13	0x3cb33e7a	0.021880377
14	0xbd8669b1	-0.06563128
15	0xbd8245df	-0.06360983
16	0x3a5be60a	0.00083884655
17	0xbdf18241	-0.11792422
18	0x3d66669f	0.05625021
19	0xbcaff308	-0.021478191
20	0x3e3e9ff1	0.186157
21	0xbe04e1ee	-0.1297681
22	0xbea23e19	-0.31688002
23	0x3e63fe8a	0.22265068
24	0xbd177fca	-0.036987104
25	0x3ee2610d	0.4421467
26	0x3e948669	0.29008797
27	0xbd042a85	-0.032267112
28	0x3d845a06	0.06462483
29	0xbcb2d841	-0.021831634
30	0x3f4422e0	0.76615715
31	0xbe7774a1	-0.24165584
32	0xbdf08b87	-0.11745363
33	0x3df985df	0.12183737
34	0xbeb69add	-0.35665026
35	0xbaa56a5a	-0.0012620196
36	0x3d9ec5d7	0.07752579
37	0xbea1f382	-0.31631094
38	0xbea4055f	-0.32035348
39	0xbda10a62	-0.078633085
40	0x3e93f5f7	0.28898594
41	0xbd90dcc2	-0.07073356
42	0x3bec2969	0.007207085
43	0xbe3e774a	-0.18600193
44	0xbbcc8976	-0.0062419726
45	0xbd277c3c	-0.040889964
46	0x3e818405	0.25296035
47	0x3e10b95b	0.14133207
48	0xbb916078	-0.004436549
49	0xbafe26bd	-0.0019390207
50	0xbd979da1	-0.07403112
51	0x3f11a42f	0.5689115
52	0x3de2391a	0.110460475
53	0xbdeabe71	-0.11462105
54	0xbe58ae29	-0.21160187
55	0xbe091042	-0.13385108
56	0xbe0bd85f	-0.13656758
57	0x3dba9e5e	0.091122374
58	0xbda94248	-0.08264595
59	0xbd27c7ce	-0.040962033
60	0xbe78ccc3	-0.2429686
61	0x3f20496a	0.6261202
62	0xbcefbeed	-0.029265845
63	0xbc3fbc6b	-0.011702637
64	0x3d998d4a	0.07497652
65	0xbe04846c	-0.1294114
66	0x3e8e19d8	0.27754092
67	0x3d71fbf0	0.059078157
68	0x3ca3bd19	0.01998763
69	0x3d749004	0.059707657
70	0x3d86291b	0.06550809
71	0x3e775975	0.24155219
72	0xbcf40cfb	-0.029791346
73	0xbcd9eb7e	-0.02660155
74	0xbd54224c	-0.05179052
75	0x3e014531	0.1262405
76	0x3cda15f7	0.026621802
77	0xbdd5f6ce	-0.10447465
78	0xbdb7dd7e	-0.08977793
79	0xbca937a1	-0.020656409
80	0xbdbb3d1d	-0.09142516
81	0xbe1bdc9e	-0.15220878
82	0xbe210e0c	-0.15728015
83	0xbd4ae99f	-0.049539205
84	0x3f2fe666	0.68710935
85	0x3d764266	0.060121916
86	0xbcd813a7	-0.026376558
87	0x3e0c9322	0.13728002
88	0x3f71eebe	0.94504917
89	0x3f0d1c4b	0.55121297
90	0x3f1136f3	0.5672447
91	0xbc844401	-0.016145708
92	0xbe094cfc	-0.13408273
93	0xbd6f06a7	-0.058355954
94	0xbde30e52	-0.11086716
95	0xbc8c1fe0	-0.017105043
96	0xbed6674a	-0.41875678
97	0xbc829e0f	-0.015944509
98	0xbe1ac13f	-0.1511278
99	0xbd581a07	-0.052759197
100	0xbe6186ba	-0.2202405
101	0xbc5c01dd	-0.013428179
102	0xbe39a2ff	-0.18128584
103	0x3f23ca20	0.63980293
104	0x3d6369f9	0.055520985
105	0xbf3f7cc2	-0.7479974
106	0xbf1badac	-0.6081188
107	0xbe8c4e40	-0.2740345
108	0xbb8b640c	-0.00425387
109	0x3e2956af	0.16536973
110	0xbe801700	-0.25017548
111	0xbe656d50	-0.2240498
112	0x3e6764b1	0.22597004
113	0x3f4810da	0.78150713
114	0xbeea0474	-0.45706522
115	0x3ebd75bd	0.3700389
116	0x3f017f1d	0.50584584
117	0xbceeeae7	-0.029164745
118	0xbdb45e39	-0.08807034
119	0xbce539cd	-0.027981663

fc2.weight f4 [84, 120]
0	0x3e8ac74b	0.27105173
1	0x3db6a547	0.08918243
2	0x3da6d282	0.0814562
3	0xbcfba03e	-0.030716058
4	0xbbeab13b	-0.007162241
5	0xbef05cc5	-0.46945778
6	0xbd1bd568	-0.038045317
7	0x3cca50cd	0.024696732
8	0xbd3b559f	-0.04573595
9	0x3de96bd7	0.11397522
10	0xbdb0051d	-0.08594725
11	0x3c844d21	0.01615006
12	0x3d77b2db	0.060473304
13	0xbd8a21e7	-0.067447476
14	0xbba1adbf	-0.004934042
15	0x3c8d5d24	0.017256327
16	0xbd40d578	-0.04707858
17	0x3e0dc5c0	0.13844967
18	0x3e918a52	0.28425843
19	0xbd920495	-0.0712978
20	0xbe88901b	-0.26672444
21	0xbe09d93c	-0.13461775
22	0xbedcb094	-0.43103468
23	0x3e91b1b4	0.2845589
24	0x3e169f98	0.14709318
25	0xbe6245a7	-0.22096883
26	0xbcbdfede	-0.02319282
27	0xbd19813a	-0.037476756
28	0x3df42f0f	0.11923038
29	0x3d852e3a	0.06502958
30	0xbdbd7316	-0.092504665
31	0xbd635ee8	-0.05551043
32	0x3cd9e3b3	0.026597833
33	0xbe13ff0c	-0.14452761
34	0xbe84164f	-0.2579827
35	0xbeafb002	-0.3431397
36	0xbe0f66c3	-0.14004044
37	0xbe4ce874	-0.20010549
38	0x3e023d85	0.1271878
39	0x3d67e3ca	0.05661372
40	0x3e67cad2	0.22635964
41	0x3e12de7d	0.14342685
42	0x3ce48ae1	0.027898254
43	0xbd4d10f7	-0.050065007
44	0x3d9f1a98	0.07768744
45	0xbc37ea01	-0.0112252245
46	0x3e639e6b	0.222284
47	0xbcc05f06	-0.02348281
48	0x3d7a559d	0.061116803
49	0x3c821d7f	0.015883205
50	0x3da1bd2f	0.07897412
51	0x3e63b068	0.22235262
52	0x3c6e6fa5	0.014552985
53	0xbd45f572	-0.048329778
54	0xbd9d2fe3	-0.07675149
55	0xbe2d24eb	-0.16908614
56	0xbe744721	-0.23855259
57	0xbe6d13a7	-0.23152028
58	0x3a98c59b	0.0011655571
59	0xbb8798d5	-0.004138092
60	0x3dc0fbbe	0.09423016
61	0x3c31e402	0.010857584
62	0x3ddeab21	0.10872484
63	0xbdbc20a1	-0.09185911
64	0xbd124cbb	-0.035717707
65	0x3d5a3047	0.053268697
66	0x3e45855e	0.19289157
67	0xbe9588ce	-0.29205936
68	0xbce850e7	-0.02835889
69	0xbd0eb7e7	-0.03484335
70	0x3bad5cba	0.005290595
71	0x3e641106	0.22272119
72	0xbd36eae2	-0.044657595
73	0x3e930f0e	0.28722423
74	0xbda558c3	-0.080735706
75	0x3d0e1f49	0.034697805
76	0x3e524153	0.20532732
77	0xbdac2916	-0.08406274
78	0xbcf014d6	-0.02930681
79	0xbd9bd896	-0.0760967
80	0x3bacfb18	0.005278956
81	0xbd04d260	-0.03242719
82	0x3e52b4b4	0.20576745
83	0x3ea5f075	0.32410017
84	0xbb570b75	-0.0032813225
85	0xbd57e78e	-0.052711062
86	0xbc5b6b16	-0.0133922305
87	0xbe533b84	-0.20628172
88	0xbd5aa306	-0.053378128
89	0x3e7577d4	0.23971492
90	0xbe8954c4	-0.26822484
91	0xbe84afd8	-0.25915408
92	0xbd14d990	-0.036340296
93	0x3d52d239	0.051470015
94	0xbe13fac7	-0.14451133
95	0x3d8499fd	0.064746834
96	0x3dee7488	0.1164332
97	0xbd9a2277	-0.07526105
98	0x3e757903	0.23971944
99	0x3d289618	0.041158766
100	0x3db61955	0.088915505
101	0x3cc7f310	0.024407893
102	0x3e7a9971	0.24472596
103	0xbc889426	-0.016672205
104	0xbd1bdc93	-0.038052153
105	0xbe60cb24	-0.21952492
106	0xbdf05d29	-0.11736519
107	0x3ef15836	0.47137612
108	0x3b4b5368	0.0031025056
109	0xbec166ba	-0.37773687
110	0xbe374385	-0.1789685
111	0xbd645e52	-0.055754013
112	0xbe14052b	-0.14455096
113	0xbe6b77de	-0.22994944
114	0xbe2a66e0	-0.16640806
115	0xbe86c8f3	-0.26325187
116	0xbcc030a0	-0.023460686
117	0x3d99e7a1	0.07514883
118	0xbdf3e808	-0.11909491
119	0x3c2b9586	0.010472661
120	0x3d2ac296	0.041689478
121	0x3d946c3e	0.07247208
122	0x3c9b40dd	0.018951828
123	0xbc66ef18	-0.01409509
124	0xbc6be252	-0.014397221
125	0xbde6b1de	-0.11264394
126	0xbd440a1e	-0.04786121
127	0xbcbc7eed	-0.023009742
128	0x3d623920	0.05523026
129	0x3d1c9812	0.038230963
130	0xbdd4bbcb	-0.10387381
131	0xbdb08b32	-0.086202994
132	0xbd89b8b8	-0.067246854
133	0xbd8f4d1d	-0.0699713
134	0x3db313c1	0.08744002
135	0x3d703a56	0.058649383
136	0x3d7b1cdc	0.06130682
137	0x3d0522b0	0.032503784
138	0xbd4ebe3f	-0.0504744
139	0xbd788c07	-0.060680415
140	0xbdb840c4	-0.08996728
141	0xbcdcdeb4	-0.026961662
142	0x3cebf845	0.028804908
143	0xbc228175	-0.00991856
144	0x3aba57b6	0.0014216814
145	0xbcfa5508	-0.030558124
146	0xbd31cdf9	-0.04340932
147	0xbd85f42b	-0.06540712
148	0xbca12952	-0.019673023
149	0x3ce0565a	0.027384926
150	0xbd08ee81	-0.03343058
151	0x3d3de8f1	0.04636473
152	0xbcd1eca4	-0.025625534
153	0xbe0984db	-0.13429587
154	0xbddfe6a1	-0.10932661
155	0xbd9f91df	-0.077914946
156	0xbd019c3a	-0.03164313
157	0xbb8d9a65	-0.004321384
158	0xbcdc9e71	-0.02693102
159	0xbbb0e7c8	-0.005398724
160	0xbe34e64e	-0.1766598
161	0xbc8fdbff	-0.017560957
162	0xbd4ca41d	-0.049961198
163	0xbce24ccd	-0.027624512
164	0x3d265789	0.040610824
165	0xbdaf94a2	-0.08573271
166	0xbde7a2b7	-0.11310332
167	0xbd2d3e97	-0.04229602
168	0xbd5219f4	-0.051294282
169	0xbd823c3e	-0.063591465
170	0x3c538dda	0.012912238
171	0x3c855186	0.016274225
172	0xbcace990	-0.021107465
173	0x3cf2757e	0.02959704
174	0xbd98af82	-0.074553505
175	0xbdc220f2	-0.0947894
176	0xbcc66e88	-0.024222627
177	0xbcdb18a0	-0.02674514
178	0x3d03f4c1	0.032215837
179	0xbd050629	-0.032476578
180	0xbd4b4521	-0.049626473
181	0xbe045c1d	-0.12925763
182	0xbdb06626	-0.08613233
183	0xbd2b0cf5	-0.041760404
184	0x3d0a4bcf	0.033763703
185	0x3cd10dbf	0.02551925
186	0xbd5fee4c	-0.054670617
187	0xbd885668	-0.06657106
188	0x3c881ed3	0.01661626
189	0xbc2fe931	-0.0107367495
190	0xbdd1a827	-0.10237151
191	0xbde84916	-0.11342065
192	0xbdaf15ac	-0.085490555
193	0xbbf7e322	-0.007564918
194	0xbda91d23	-0.082575105
195	0xbd90eceb	-0.070764385
196	0xbc7ce520	-0.015435487
197	0x3d844360	0.06458163
198	0x3d1b00a1	0.037842397
199	0x3c4bc49d	0.012437013
200	0x3d63a00b	0.05557255
201	0xbd8db3b1	-0.06919039
202	0xbb83035a	-0.0039982023
203	0x3d99c203	0.07507708
204	0x3c2cad8f	0.0105394265
205	0x3c678a3f	0.0141320815
206	0xbd9a1510	-0.075235486
207	0xbd0aeac2	-0.03391529
208	0xbd2cf974	-0.042230085
209	0xbd649080	-0.05580187
210	0xbcdc4cbf	-0.026892064
211	0xbdf02a6c	-0.11726841
212	0xbd947cad	-0.072503425
213	0xbdb3ee02	-0.08785631
214	0x3c48aec3	0.012248698
215	0x3d00b631	0.03142375
216	0x3d612d7a	0.05497501
217	0x3d5eb61e	0.0543729
218	0xbda9aeaf	-0.082852714
219	0x3ce43264	0.02785606
220	0xbdb0b505	-0.08628277
221	0xbde05fab	-0.10955747
222	0xbd29544a	-0.04134015
223	0xbd84b78f	-0.064803235
224	0x3cfe0759	0.031009363
225	0xbdacaea1	-0.08431745
226	0xbdcace04	-0.099025756
227	0xbc902216	-0.017594378
228	0xbd07a636	-0.033117495
229	0xbd4ad1eb	-0.0495166
230	0xbcc193db	-0.023630073
231	0xbe577830	-0.21041942
232	0xbd327848	-0.04357174
233	0xbe2c1688	-0.1680547
234	0xbdd41e3c	-0.10357329
235	0xbdc85663	-0.09782102
236	0xbd45769f	-0.04820883
237	0x3c06f669	0.00823746
238	0xbccd2fe5	-0.025047252
239	0xbda21e64	-0.07915953
240	0xbd617039	-0.055038664
241	0x3d70f702	0.058829315
242	0x3c23abc2	0.009989681
243	0xbc384c7c	-0.011248704
244	0xbc853ed6	-0.016265314
245	0xbda03e53	-0.078243874
246	0xbdadbaaf	-0.08482873
247	0x3d5ebbb3	0.054378223
248	0x3d9533c8	0.07285267
249	0xbc89bc7d	-0.016813511
250	0xbdcde7f6	-0.10054009
251	0xbd3c670a	-0.045996703
252	0xbd3551bd	-0.044267405
253	0x3d4ad724	0.04952158
254	0xbcfd194f	-0.030895857
255	0xbc206468	-0.009789564

fc2.bias f4 [84]
0	0xbe16fc99	-0.14744796
1	0xbe127ebd	-0.1430616
2	0xbd641d4f	-0.055692013
3	0x3eb1b64a	0.34709388
4	0xbde316df	-0.11088347
5	0x3cc4e78b	0.02403619
6	0xbe51dccd	-0.20494385
7	0xbedbf151	-0.42957547
8	0xbe84f38b	-0.2596706
9	0xbd44cb34	-0.048045352
10	0xbd8d07b3	-0.06886234
11	0x3e04edc7	0.1298133
12	0xbe3a3e59	-0.18187846
13	0x3e2854a4	0.16438538
14	0x3f577ece	0.84177864
15	0xbeac4963	-0.3364974
16	0xbdd49e31	-0.10381735
17	0xbeb02f86	-0.34411258
18	0xbe823117	-0.25428078
19	0xbde29b36	-0.110647604
20	0xbe00ee17	-0.12590824
21	0xbe3381fe	-0.17530057
22	0xbeea22ab	-0.45729575
23	0x3ef461b4	0.47730792
24	0xbe40d6c2	-0.18831924
25	0xbe5f608c	-0.21814173
26	0x3eef1e91	0.46703008
27	0x3e7ab331	0.24482419
28	0x3e66f549	0.22554506
29	0xbd398954	-0.045296982
30	0xbdbca59c	-0.09211275
31	0xbe3e376c	-0.1857583
32	0xbe2d77fa	-0.16940299
33	0x3ec0a221	0.37623695
34	0xbe360290	-0.17774415
35	0xbdbf34e1	-0.09336258
36	0xbee07d89	-0.43845776
37	0xbeb6c09b	-0.3569382
38	0xbd49f51a	-0.049306013
39	0xbe63c816	-0.22244295
40	0xbe29d18b	-0.1658384
41	0xbe78e898	-0.24307477
42	0xbe3007af	-0.17190431
43	0x3f8d4124	1.1035504
44	0x3e936318	0.2878654
45	0xbec5707b	-0.38562378
46	0x3de28bd2	0.11061825
47	0xbe4e49ad	-0.20145293
48	0x3e9ff888	0.31244302
49	0x3b28d87a	0.0025763796
50	0x3e409eca	0.18810573
51	0x3f27c74d	0.65538484
52	0x3f109d46	0.5648998
53	0xbeb1db70	-0.3473773
54	0x3e0caa14	0.13736755
55	0xbe871840	-0.2638569
56	0x3d219407	0.03944781
57	0xbea0f572	-0.3143726
58	0xbcfa15b9	-0.030527936
59	0x3f1f4f1a	0.62230074
60	0x3b88cda9	0.004174907
61	0x3f114cdc	0.56757903
62	0xbcba3982	-0.0227325
63	0xbdd734c5	-0.10508112
64	0xbe934d0c	-0.2876972
65	0x3d150e43	0.036390554
66	0xbded60ef	-0.11590754
67	0x3f41ef06	0.75755346
68	0x3f5bc3ee	0.8584584
69	0x3ebcb01d	0.36853114
70	0x3e20a52b	0.15688007
71	0x3e21c2bb	0.1579694
72	0x3ec8f550	0.3924966
73	0x3e6b3184	0.22968107
74	0xbe48f170	-0.19623351
75	0x3f1014a7	0.5628151
76	0x3ea65fb8	0.32494903
77	0xbed315ca	-0.4122756
78	0x3f477e8c	0.7792747
79	0xbeb2ee76	-0.34947556
80	0x3f62d0a3	0.88599604
81	0x3ed3364e	0.4125237
82	0xbee97558	-0.4559734
83	0x3f014ccb	0.505078

fc3.weight f4 [10, 84]
0	0xbe454ebb	-0.19268315
1	0xbda6a22f	-0.08136403
2	0xbd0b2e72	-0.03397984
3	0x3e0c3e9f	0.13695763
4	0x3cae4dfd	0.021277422
5	0x3d89a820	0.067215204
6	0xbe746c45	-0.23869427
7	0xbe95199f	-0.2912111
8	0xbe9cd71b	-0.30632862
9	0xbeab19cc	-0.3341812
10	0xbddcc5fe	-0.107799515
11	0x3ceaa6cd	0.02864399
12	0xbe1d3c51	-0.1535504
13	0xbe5c1eea	-0.21496168
14	0xbc548906	-0.012972122
15	0xbebfcdac	-0.37461603
16	0xbcd8da50	-0.026471287
17	0xbd516e2b	-0.051130455
18	0xbe24335c	-0.16035217
19	0xbe1b22a6	-0.15149936
20	0xbedbe7c2	-0.42950255
21	0xbea99d3b	-0.3312777
22	0xbe95f243	-0.29286394
23	0x3c7bd34d	0.015370202
24	0xbf091206	-0.53543127
25	0xbe165e06	-0.14684305
26	0xbe065833	-0.13119583
27	0xbea4f00b	-0.32214388
28	0x3cfde7c9	0.030994313
29	0xbe6b1814	-0.22958404
30	0xbea74649	-0.3267081
31	0xbe47cb9a	-0.19511262
32	0xbd291e50	-0.041288674
33	0xbe46be67	-0.1940857
34	0xbd3ed3bc	-0.046588644
35	0x3d80b87d	0.06285188
36	0xbeb4f091	-0.35339788
37	0xbd184864	-0.037178412
38	0xbdf3ad79	-0.11898322
39	0xbebfbc48	-0.37448335
40	0xbf112dbf	-0.5671043
41	0xbd543726	-0.051810406
42	0x3e3c09e7	0.18363152
43	0xbe325665	-0.1741577
44	0xbe49a4b4	-0.19691736
45	0xbedb4565	-0.4282638
46	0xbe05443c	-0.1301431
47	0xbeddfb99	-0.43356016
48	0xbe651af7	-0.22373568
49	0xbd04f878	-0.03246352
50	0xbcb1ec35	-0.021719078
51	0xbea3ac8a	-0.31967574
52	0xbd21381b	-0.039360147
53	0xbf7c24ce	-0.9849366
54	0xbd8bd047	-0.06826835
55	0xbed0e164	-0.4079696
56	0xbddaf6ac	-0.1069158
57	0xbe0a7de3	-0.13524584
58	0xbe23aaf3	-0.1598318
59	0x3d538ba0	0.05164683
60	0xbe8939e1	-0.2680197
61	0xbe4d30dc	-0.2003817
62	0xbe1da142	-0.15393546
63	0xbdffdc4f	-0.124931924
64	0xbd8ea3c0	-0.069648266
65	0xbf43cfb9	-0.76488835
66	0xbd1ff33f	-0.039050337
67	0xbcbbfc14	-0.022947349
68	0xbdbf1e49	-0.09331948
69	0xbcd9839c	-0.026552014
70	0xbea4302a	-0.32067996
71	0xbe52bf9e	-0.20580909
72	0xbdfd7763	-0.12376287
73	0xbe208f8d	-0.1567976
74	0xbcfdb31d	-0.030969197
75	0x3d863970	0.06553924
76	0xbe3635dd	-0.17793985
77	0xbed44a6a	-0.41463023
78	0xbe910715	-0.28325716
79	0xbe92cb60	-0.28670788
80	0xbe7d85b8	-0.24758041
81	0x3d6b4d38	0.05744669
82	0xbdec9744	-0.11552289
83	0xbea11f67	-0.3146927
84	0xbed1d884	-0.409855
85	0xbe391e65	-0.18078001
86	0xbcdb4416	-0.026765864
87	0x3cac8aa5	0.021062205
88	0x3e43f57b	0.19136612
89	0xbca0bb33	-0.019620514
90	0xbea0687b	-0.31329712
91	0xbe3142e9	-0.1731068
92	0xbe5b70b9	-0.21429719
93	0xbec125c0	-0.37724113
94	0xbea0cd99	-0.3140686
95	0xbe6152c4	-0.22004229
96	0xbe43f15b	-0.19135039
97	0xbe2001e3	-0.1562572
98	0xbe76e877	-0.24112116
99	0xbe81cf75	-0.2535359
100	0xbd2df5fe	-0.042470925
101	0x3b908c3c	0.0044112485
102	0xbe64630b	-0.22303407
103	0xbd189899	-0.037254903
104	0xbd648508	-0.05579093
105	0xbe3913b4	-0.18073922
106	0xbee462d6	-0.44606656
107	0x3d44c5a3	0.048040044
108	0xbe80868b	-0.25102648
109	0xbee0d0ba	-0.43909246
110	0xbe6fd3d0	-0.23420644
111	0xbe66eb36	-0.22550663
112	0x3d6d58e8	0.057946116
113	0xb9c23734	-0.00037043693
114	0xbc1099b2	-0.008825706
115	0x3c44b6bc	0.012006458
116	0xbd388e82	-0.04505778
117	0xbe8d47cf	-0.27593848
118	0xbd855ebd	-0.065122105
119	0xbd02aeb5	-0.031904895
120	0xbe53c485	-0.20680435
121	0x3c63db56	0.013907274
122	0xbd435046	-0.047683977
123	0xbe62fed0	-0.22167516
124	0xbf47630f	-0.77885526
125	0xbf63ad83	-0.8893663
126	0x3d9e274d	0.0772234
127	0xbeb10ce2	-0.3458014
128	0xbd381ab2	-0.044947334
129	0xbe6aa896	-0.22915873
130	0xbcfdfab5	-0.031003335
131	0xbf0fdcc0	-0.5619621
132	0xbe0e6feb	-0.13909881
133	0x3e194de0	0.14971113
134	0xbea20af8	-0.31648993
135	0xbdce05e7	-0.100597195
136	0xbe4d3c73	-0.20042591
137	0xbe389d1b	-0.18028681
138	0xbe73bee3	-0.23803286
139	0xbde681fc	-0.11255261
140	0xbdd1e352	-0.10248436
141	0xbe91db2c	-0.28487527
142	0xbed2337b	-0.410549
143	0xbefc1bd9	-0.49239996
144	0x3d285088	0.041092426
145	0x3dc697e0	0.096969366
146	0xbdab507b	-0.0836496
147	0xbda60ece	-0.081082925
148	0xbf45adca	-0.77218306
149	0xbec00215	-0.37501588
150	0xbe006137	-0.12537085
151	0xbe437fa5	-0.19091661
152	0xbdbff89e	-0.09373592
153	0xbf3101f3	-0.691436
154	0xbf224c17	-0.63397354
155	0x3d22d30d	0.039752055
156	0x3d05b007	0.032638576
157	0xbe9b191d	-0.30292597
158	0x3d2b89f9	0.041879628
159	0xbef4cb92	-0.47811562
160	0xbe284167	-0.16431199
161	0xbf469966	-0.7757782
162	0xbe419d1b	-0.18907587
163	0xbcceea6b	-0.025258264
164	0xbecf1bd5	-0.40450922
165	0xbeb2bb92	-0.3490873
166	0xbe05f9ea	-0.13083616
167	0xbf359e5c	-0.7094476
168	0xbdd5bfe6	-0.10436992
169	0xbe06c6cc	-0.13161772
170	0xbd46a894	-0.048500612
171	0xbe4fd84c	-0.20297354
172	0xbeb1f830	-0.34759665
173	0xbe24c643	-0.16091256
174	0xbee91591	-0.45524266
175	0xbf0661a2	-0.52492726
176	0xbe92e2c8	-0.28688645
177	0xbf19ea0e	-0.60122764
178	0xbd93f83e	-0.07225083
179	0x3d5d6956	0.054055534
180	0xbf231b23	-0.6371328
181	0xbeee7ee3	-0.46581182
182	0xbe71bb5b	-0.23606627
183	0xbf025bdc	-0.50921416
184	0xbe7dc465	-0.2478195
185	0xbe02645b	-0.12733595
186	0xbead3ab4	-0.3383385
187	0xbdfd7fd4	-0.12377897
188	0xbdf978a1	-0.12181211
189	0xbef0d96e	-0.47040886
190	0xbf868592	-1.0509512
191	0x3d6b7376	0.05748316
192	0xbec8141e	-0.39077848
193	0xbe4bdecf	-0.19909213
194	0xbe613186	-0.21991548
195	0xbde505b2	-0.11182727
196	0xbe246808	-0.1605531
197	0xbe0cbafd	-0.13743205
198	0xbf20fa3a	-0.62881815
199	0xbea57acc	-0.3232025
200	0x3d998437	0.07495921
201	0x3c929e9d	0.017897898
202	0xbd43644e	-0.04770308
203	0x3d5a2e84	0.053267017
204	0xbf2e41af	-0.68068975
205	0xbc1f219c	-0.009712603
206	0xbd4302cb	-0.047610085
207	0xbe21a2b0	-0.15784717
208	0xbe1f4ddf	-0.15557049
209	0xbe860fea	-0.26184016
210	0x3d1a8573	0.037724923
211	0x3e2e8ec0	0.17046642
212	0x3c87b1e2	0.016564313
213	0xbeffc210	-0.49952745
214	0xbd5eacac	-0.05436389
215	0xbd8f3d82	-0.069941536
216	0xbea53da5	-0.32273594
217	0xbe083bc9	-0.13304056
218	0xbe168d94	-0.14702445
219	0x3cc399cb	0.023877045
220	0xbe7b1b8e	-0.2452223
221	0xbe8d82a0	-0.2763872
222	0x3e0428fe	0.12906262
223	0xbe895ee7	-0.26830217
224	0x3d3e380e	0.046440177
225	0xbe77efb9	-0.2421254
226	0xbed47ef3	-0.41503105
227	0x3dd079d1	0.10179485
228	0x3a838c80	0.0010036379
229	0xbe3e5df1	-0.18590523
230	0x3b9c68b4	0.004773224
231	0xbe105352	-0.14094284
232	0xbde4d2ff	-0.11173057
233	0xbeacb3e0	-0.33730984
234	0xbd0b0a37	-0.03394529
235	0x3d5f2029	0.05447403
236	0x3dc1ccb2	0.09462871
237	0xbe15c733	-0.1462677
238	0xbed039ff	-0.40669248
239	0xbddc8ff7	-0.107696466
240	0xbe0a2123	-0.13489203
241	0xbecd19e3	-0.40058812
242	0xbf316097	-0.6928801
243	0x3d8ce47a	0.06879516
244	0xbe24e8e7	-0.1610447
245	0xbf156b53	-0.5836689
246	0xbe049fa4	-0.12951523
247	0xbde92803	-0.11384585
248	0xbcd2b94c	-0.025723122
249	0xbcb58f19	-0.02216296
250	0xbdc949a5	-0.098285
251	0xbce5a8b8	-0.028034553
252	0xbd599b55	-0.05312665
253	0xbe1ab392	-0.15107563
254	0xbdf56a20	-0.11983132
255	0xbeb948c3	-0.36188325

fc3.bias f4 [10]
0	0xbea05969	-0.31318215
1	0xbe958cd6	-0.29209012
2	0xbe2422e6	-0.16028938
3	0x3ecfe0c5	0.40601173
4	0x3ebaf19c	0.36512458
5	0xbe1ba8ed	-0.15201159
6	0x3ebf25fc	0.37333667
7	0xbecb77aa	-0.39739734
8	0x3e701890	0.2344687
9	0xbe4e72fb	-0.20161049
